ml_package/pytorch/deep_learning/cifar_net.pth (torch_old, 249562 bytes, 10 tensors)

conv1.weight f4 [6, 3, 5, 5]
00000000: 44e3 643e 4fc4 f73e 4ea0 fa3e 2070 7f3e
00000010: fa43 7f3c 41b3 b63d 9dbf edbc 65b9 913e
00000020: a55b 513e eb36 083e ed6e b13c 9db7 1cbe
00000030: 49ac febd a1f4 fcbb 818a 903e ef1f d13d
00000040: e155 84be 7648 7ebe 326e e0bd 5a1f 703e
00000050: 11e1 ad3c 859e 1fbe b38f d2be 9068 7abe
00000060: 250c b5bc b72e b6be 07a9 6cbe 62e3 3fbe
00000070: d3dc aabe 1f10 a6be bc92 dcbe f7f4 98be
00000080: 2599 43be 02be 89bd 19f0 a43c a1e9 9cbe
00000090: 76fc b6be b809 a6be 3694 4b3d cc84 873e
000000a0: 05b7 1bbd 50f3 9cbe eaf4 c6be 6e9f bdbd
000000b0: 4835 1b3e 9ed9 3d3e 0c94 7cbd d21a 1abe
000000c0: 02a9 2bbe af52 1e3e 3634 0a3c 9b31 333d
000000d0: 3232 f2bc c7a9 1fbe f12d a2bd 6465 24be
000000e0: 85b4 01be 7323 77bc 17c2 cd3c 572c 873e
000000f0: aaf4 f13d 9847 12be bd79 c2bd f9fc 533e
00000100: c39d 983e a93e 903e 65c2 42be 68d1 a5be
00000110: 71a2 a5bd 6a0a 653e 1176 f83e 00d1 b33d
00000120: fce8 bfbd 6e4d 363d a26d c73e 32af de3d
00000130: 2b95 423d d318 283e f6df 52bd a676 c73d
00000140: 0c17 c83c 7225 21bd 433c a1bd 9770 4dbe
00000150: c508 fbbd c423 bc3d 9ff3 86bd 00c1 8ebe
00000160: e94d 7cbe eb53 77be 0ce5 e23d f190 643e
00000170: 5fc7 d93d 2ceb 9a3e a61a 503e 5b28 283e
00000180: 384f 863e a4bd f43d 5c0a 933e 58a8 8e3e
00000190: 57c2 a4bb 04dc 30be 9213 9fbd 740f 933d
000001a0: 79fa 653e 30e8 48be f03e 54be a406 2ebe
000001b0: 645b 36be 38cf 4abe d2c1 5ebe 25c8 84be
000001c0: e82d adbe 9192 cebe abc4 ebbe 2264 febd
000001d0: bebc 83bd 6721 0f3e edf6 da3c a683 393d
000001e0: f975 33bc e427 403d 6f3c 583e 27be 253e
000001f0: 8d61 a03d 5d5e 0c3e dae4 5a3c a34a 973e
00000200: 1f24 8c3e 73ef cb3e 5880 593e 6c3d 04be
00000210: dfd9 7b3d b146 9bbb 38e8 3a3e 7876 51bd
00000220: 5b0c 86bd b628 f2bd ce17 80be cb11 61be
00000230: f43f 57bd b79d 4dbd 42df 2f3e 39a7 273e
00000240: 39aa 8f3d d9d5 b93d ad69 073e 2525 073e
00000250: dda6 36bd ec05 0cbe 08ae 57bd f19e bd3b
00000260: 5c82 45bd 93b6 6bbe dc5e 4fbe 524d e33d
00000270: fbe6 3a3d 5394 273d c579 a6bd eaba 02be
00000280: 3ff7 b43d 4972 fa3d 1431 983d b8d5 6f3d
00000290: a70c ab3d 4c54 153d d69a 0f3e 7127 873e
000002a0: f295 573e 9529 103e f6d6 713e 3f70 613e
000002b0: e482 f43d 7ad7 813e 7a4b 9c3e 6629 12bb
000002c0: eba8 d23a 5a49 0fbd 8bf7 d8bd d830 e6bd
000002d0: 5e9a 2bbe fc68 4d3d 547b c23c cc71 98bd
000002e0: be49 22be 5526 e4bd f076 ffbc c5b6 90bd
000002f0: 38e9 713d 2670 54be c42f 0bbe df98 20bc
00000300: 90d7 08be cd6e 943c 4f51 58be d21d 3fbe
00000310: 9fb2 85be 8157 40be f6bf e0bd d25c 9fbb
00000320: 89c5 023e dbfa 083e cd25 ad3d a9c8 e53d
00000330: 168c 903d 5f8b 643b 052f 413e cd79 743e
00000340: 700d 683e a133 b8bd 4d67 dd3b da91 a73d
00000350: b3c8 6c3e 68ae 553e b25d 4e3d 8d8b ccbd
00000360: b225 a7bd b12e d43d ba86 ed3d 145b c23d
00000370: 3d27 86bd 2817 8dba 9b08 bd3c 440d 6c3d
00000380: 6a26 ac3d 65ba 5abd eea1 32bd 2223 5bbc
00000390: 2552 ad3b 31d8 ec3c faa1 b3be 7c74 c9be
000003a0: e646 ecbe 5119 f9be 5a83 a8be 19a7 9cbe
000003b0: c136 b0be d9b8 2bbe 1ed6 73be b4bf 96bd
000003c0: c47f dbbc a9f7 6a3d 1628 993e 92dc 713e
000003d0: a22c 263e f69a adbd 9763 103e 3e11 973c
000003e0: 1b9e 4b3d 7e35 083e 5976 d93d fbb0 7d3e
000003f0: 11f5 363e 64c1 0d3d 46f2 773d 55e7 8bbc
0.2235232 0.4839196 0.48950428 0.24945116 0.015580172 0.08920909 -0.029022032 0.28461757
0.20445116 0.133022 0.021659339 -0.15304418 -0.124352045 -0.0077195917 0.2823067 0.10211169
-0.2584677 -0.24832329 -0.10958518 0.2344946 0.021225484 -0.15587814 -0.4112526 -0.2445395
-0.022100518 -0.35582516 -0.23111354 -0.18739083 -0.333716 -0.32434174 -0.430807 -0.29874393
-0.19101389 -0.06725694 0.020134019 -0.30646995 -0.35739487 -0.3242929 0.04970189 0.26468503
-0.038016338 -0.30654383 -0.3885873 -0.092589244 0.15157044 0.18540046 -0.061664626 -0.15049294
-0.1676369 0.15461229 0.0084353 0.04374848 -0.02956495 -0.15592109 -0.07918919 -0.16054302
-0.12666519 -0.015084135 0.025116963 0.26401016 0.11814244 -0.14285123 -0.09495876 0.2070197
0.29807863 0.28172806 -0.19019468 -0.32386327 -0.08087624 0.22367254 0.48527578 0.08780098
-0.0937061 0.044507436 0.3895083 0.108732596 0.04750554 0.1641572 -0.051483117 0.09739427
0.024425052 -0.03934235 -0.07872822 -0.20062481 -0.12257532 0.09186509 -0.06589436 -0.27881622
-0.24639095 -0.24153106 0.110788435 0.22320916 0.1063373 0.30257547 0.20322666 0.16421644
0.26232314 0.119502336 0.2871884 0.2786281 -0.00502805 -0.1727143 -0.077674046 0.07180682
0.22458829 -0.19619823 -0.20727134 -0.1699472 -0.178083 -0.1980561 -0.21753624 -0.25933948
-0.33824086 -0.40346196 -0.46048483 -0.124214426 -0.06432484 0.13977586 0.026729072 0.045291565
-0.01095342 0.046913043 0.21116804 0.16185819 0.07831106 0.13707872 0.0133602265 0.2954913
0.27371308 0.39831123 0.21240366 -0.12914056 0.061487075 -0.0047386517 0.18252647 -0.05113837
-0.06545325 -0.11824171 -0.25018162 -0.21979444 -0.052551225 -0.050199237 0.1717501 0.16372384
0.07014889 0.09073991 0.13223906 0.13197763 -0.044592727 -0.13674134 -0.052656204 0.0057867696
-0.048220024 -0.23018865 -0.2025103 0.11098732 0.045630436 0.040912937 -0.081286944 -0.12766615
0.08836221 0.122288294 0.07431236 0.058553427 0.083520226 0.036457345 0.14023909 0.2639728
0.21053293 0.14078362 0.23617157 0.22015475 0.11939028 0.25359708 0.30526334 -0.0022302507
0.001607207 -0.034982063 -0.1059409 -0.11239785 -0.16758105 0.05014895 0.023740448 -0.0744358
-0.15848443 -0.11140124 -0.031184644 -0.070661105 0.059060305 -0.20745906 -0.1359244 -0.009802072
-0.1336348 0.01811924 -0.21124767 -0.1866372 -0.2611284 -0.1878338 -0.10974114 -0.00486336
0.12770666 0.13376944 0.084544756 0.112199135 0.07057969 0.003487311 0.18865593 0.23874588
0.22661376 -0.089942224 0.006756699 0.08182116 0.23123436 0.20867312 0.050382324 -0.09987555
-0.08161487 0.10360468 0.11597963 0.09490028 -0.06550453 -0.0010764347 0.023075392 0.05762984
0.084057644 -0.053400416 -0.04361146 -0.0133750755 0.0052893334 0.028911682 -0.35084516 -0.39346683
-0.4614784 -0.48652127 -0.32912713 -0.30596235 -0.34416774 -0.16769733 -0.23812148 -0.07360783
-0.026794322 0.057365093 0.29913396 0.23619297 0.16227964 -0.08476822 0.1410049 0.018440839
0.049711328 0.13301656 0.10618276 0.24774544 0.17866923 0.03460826 0.060533784 -0.017078081

conv1.bias f4 [6]
00000000: bc6a aabe 49ab 4dbe 384d 493e c30d 99bc
00000010: 8d5c 49be 13b0 cb3e
-0.33284557 -0.20084871 0.19658363 -0.01868332 -0.19664212 0.3978277

conv2.weight f4 [16, 6, 5, 5]
00000000: c2e0 44bd 84d6 e73c 83e0 183c 54b2 aebd
00000010: 8ab6 9ebd 8fe4 5bbe 07fe 13be 912c 1cbe
00000020: 1c11 0fbd c9ff 0ebe 7055 503d b878 24be
00000030: 944a 6cbe 977e 47be 48a3 25bd 5a89 4c3e
00000040: a39f a73d 4cf7 d93d 91e3 193d 0b3b 843d
00000050: 9532 303e 52f9 8b3e 7ac0 923e 44af 353e
00000060: b4b4 383e 60d4 c83d c7d4 26bd 6064 6b3c
00000070: fb51 34bd 07db 633d b576 1d3e aabd 0b3e
00000080: bf87 f83c 1105 a73c b17f 43bd 2895 103d
00000090: 2eea d23d 331e 183e 6af9 133e f8e9 553d
000000a0: 3f7f 2fbb 6f57 cb3d 6e24 8f3c 9041 733d
000000b0: f48b 9bbc 7bf0 f23d b002 cf3c 8b27 1e3c
000000c0: df90 dabd 26cc 6cbd 95d2 74bd d4c2 b7bd
000000d0: e265 49bb 0819 e1bd 4ee7 ab3c 940b 1cbd
000000e0: 05b4 cdbd b16e d4bc 6bdc b23d 5067 ac3d
000000f0: 3e41 853d d3a7 ce3c 2e9d 3a3c eb78 33bd
00000100: 045a b3bc ca03 99bc f540 733d 7097 603d
00000110: 1a0e f838 7c3d 80bd 7eba 42be c46e 15be
00000120: 6689 c6bc b955 13be 3289 80bc 92f8 52be
00000130: 961c 8cbe bccb d1bd e1ef b6bd 2be6 a73d
00000140: 4bd1 003e a63a 833e 438a 843e c63e e13d
00000150: a94f e7bb c043 ecbd 5fcc 9fbd 87fd 313d
00000160: 57cd 993d 3b96 903d 20ef afbd 5687 363d
00000170: 8158 d9bc aa8a 30bd db6a 80bd 8c54 f43d
00000180: 0280 493d 37f8 d1bd c22c 06be 62d6 f6bc
00000190: 239d 0b3e 3cb3 963a c710 f03d bcec 9b3d
000001a0: 4e30 a3b9 b71a 12bc f14b d9bd b671 0ebe
000001b0: cbbd 953c 1ea9 bd3c ed9c efbc 50d5 1ebe
000001c0: dd54 3dbe 6a04 83bd c54c c6bd 2355 ffbc
000001d0: c78b 4dbb f94a e9bb e540 78bd b443 94bb
000001e0: 393a 043d ca81 043d f462 66bd 566c a2bd
000001f0: 13f7 d33b f04e 04be f05f 393d ee3d 8ebd
00000200: 6e83 0dbd c68a 323c aedd 31be 59aa 19bc
00000210: 6633 a3bc a672 753d 6a9e ec3c 4ed5 a63d
00000220: 1f0d 313d 3706 fa3c d2a4 563d 122e c23d
00000230: a9ab 283d ef62 ec3c 5569 583e cc65 d53d
00000240: 40ab bf3c 18f0 9bbc 242d 243c 56bc b93d
00000250: 886a dc3d d37a 9a3d 38b3 1bbc 6939 bb3d
00000260: c437 8fbd 524a f8bb db0e e5bc 1f7b 0d3d
00000270: 2aa8 e53d ec96 ec3c 4ef7 05bd b9a5 623d
00000280: 7100 b03d 7aea 963d 7e13 9b3d 2b40 c0bc
00000290: f7c2 b83b 92fd 413d 8a3a d13d 5ab1 f5bc
000002a0: 1700 e33b 75f0 fcbc 081f d23d 7593 ecbc
000002b0: b829 953d 438a b6bd ff02 1bbd be37 16be
000002c0: b0a1 d4bc 3e7e cabd 27f5 44bd 7283 93bd
000002d0: a26a 00be fa11 81bd 8d3b 1ebd a800 38be
000002e0: d4ed f4bd ec8c 94bd cf5e 523d 7231 6bbd
000002f0: 168e dbbb b0aa e7bd f421 3dbd aa5c c33d
00000300: 43d5 29bd b152 e43b 8462 91bc 5635 8dbd
00000310: 5564 d5bc f7d1 febd f073 80bd d87f aabd
00000320: 3710 45bd d43d a33d d7a5 a93d 5088 5a3d
00000330: a8e5 e73d 3e81 58bd 64b8 d9bd 89c3 043d
00000340: f857 173d 72f1 ca3d 0bc8 a1bd a909 14be
00000350: eaba 773b 30f0 023e 7428 da3d 968b d9bd
00000360: 4d77 48bd d054 a2bd 82fb 7d3d d68e 163e
00000370: f90c 5bbb 03dd d73d fa63 1d3d 835a 253e
00000380: 522c 5a3e 4c86 c2bc ba1d 72bd 3bc6 4abd
00000390: f66c a13a 7876 c8bd 77bd d93c e134 3abd
000003a0: eb67 80bd 66ed 0fbe fdce 23be 8dec 073d
000003b0: 0660 44bd 5eb2 9abd b8e0 a4bd 8f2b a8bd
000003c0: f001 b53d 3988 243e 0a0c 7c3d 3301 aebc
000003d0: ba82 6cbd d8f4 d93d ffed be3d 9af2 0b3e
000003e0: 8d78 9b3c 22c3 52bb 7ade 49be 3e9d 26be
000003f0: 5238 64be 96ea 88be d639 76be a9c7 eebd
-0.04806591 0.028300531 0.0093308715 -0.08530107 -0.0774966 -0.21473907 -0.14452372 -0.15251376
-0.034928426 -0.13964762 0.05086273 -0.16061676 -0.23075324 -0.19481884 -0.04043892 0.1997427
0.08184745 0.10642871 0.03757054 0.06456574 0.17206796 0.27338654 0.28662473 0.1774264
0.18037683 0.09806132 -0.040730264 0.014367193 -0.044023495 0.055628803 0.15377314 0.1364657
0.030338166 0.020388158 -0.047729198 0.035298496 0.102985725 0.1485527 0.14450613 0.052225083
-0.0026778725 0.09928786 0.017473426 0.059388697 -0.018987633 0.11862274 0.025269836 0.0096529825
-0.10672163 -0.05781188 -0.05977114 -0.089727074 -0.0030730893 -0.109911025 0.020984318 -0.03809698
-0.100441016 -0.025931688 0.08733448 0.08418143 0.065065846 0.02522651 0.011390014 -0.04381649
-0.021893509 -0.018678565 0.05938812 0.054831922 0.00011828188 -0.06261727 -0.19016454 -0.14593035
-0.024235439 -0.1438817 -0.01569042 -0.20602635 -0.2736556 -0.102439374 -0.08932472 0.08198198
0.12579839 0.25630683 0.25886735 0.10998301 -0.007059057 -0.1153636 -0.078026526 0.043454673
0.075098686 0.07059904 -0.08590531 0.04456266 -0.02653146 -0.04310099 -0.06270381 0.119301885
0.049194343 -0.10252421 -0.13103011 -0.030131523 0.13634162 0.0011497508 0.1172195 0.07613513
-0.00031125773 -0.008917502 -0.10610188 -0.13910565 0.018278977 0.02315193 -0.029249633 -0.1551106
-0.18489404 -0.06397326 -0.096826114 -0.031168526 -0.0031363831 -0.007119533 -0.060608763 -0.0045246724
0.032282088 0.03235034 -0.056246713 -0.0793082 0.0064686625 -0.12920737 0.04525751 -0.06945406
-0.03454917 0.010897344 -0.1736972 -0.009378993 -0.01992197 0.05992379 0.028884131 0.081461534
0.043225404 0.030520542 0.05240328 0.094814435 0.041179333 0.028855769 0.21133931 0.10419807
0.023397088 -0.019035384 0.010020528 0.09069125 0.10762507 0.07542958 -0.009503178 0.091418095
-0.06993058 -0.007577219 -0.027961185 0.034541246 0.112137154 0.028880559 -0.03270655 0.055333827
0.08593834 0.073689416 0.07572077 -0.023468098 0.005638476 0.047360964 0.102162436 -0.029991794
0.006927501 -0.030876378 0.10259825 -0.028878907 0.07283348 -0.0891309 -0.037844654 -0.14669701
-0.025956005 -0.0988736 -0.048085358 -0.072028056 -0.12540677 -0.06302257 -0.03863101 -0.17969
-0.119594246 -0.07253441 0.051359948 -0.0574202 -0.0067002876 -0.11311853 -0.04617496 0.09539159
-0.041463148 0.0069678654 -0.017747171 -0.06894939 -0.026048819 -0.12442391 -0.06272113 -0.083251655
-0.048111167 0.07970777 0.082835846 0.053352654 0.113231 -0.05285763 -0.10630873 0.03241304
0.036949128 0.09909333 -0.07899483 -0.1445681 0.0037800618 0.12786937 0.10652247 -0.10622327
-0.0489419 -0.07926333 0.062007435 0.14702925 -0.003342448 0.105402015 0.038425423 0.16147809
0.2130597 -0.023745678 -0.05911038 -0.049505454 0.0012315798 -0.09788221 0.026579602 -0.045460586
-0.06269821 -0.14055404 -0.15996929 0.033184577 -0.047943138 -0.07553552 -0.08050674 -0.08211433
0.0883826 0.1606759 0.06153492 -0.021240806 -0.057741858 0.10642403 0.09322738 0.13666764
0.018978382 -0.0032159765 -0.19713774 -0.1627092 -0.2228711 -0.26741475 -0.240455 -0.11659176

conv2.bias f4 [16]
00000000: c58f a8be cf5f fbbd 8bd0 e7bd cd79 273f
00000010: 3c9d 3b3e a23e 75bc 16b7 45bf 8a34 a8be
00000020: d586 62bd a759 9b3f 1132 a0bd 9e2b babd
00000030: 8983 32be 959e 4fbf 18c9 c53e b5f5 10be
-0.32922187 -0.122741334 -0.11319073 0.6542023 0.18321699 -0.014968546 -0.7723249 -0.32852584
-0.055304367 1.2136735 -0.078220494 -0.090903506 -0.17432989 -0.8110135 0.38629985 -0.1415623

fc1.weight f4 [120, 400]
00000000: 8eb5 0dbd 81b9 0c3a f321 70bc 6d9c 9d3a
00000010: efd5 113c 89bf ec3c 3065 093d 8af0 ea3c
00000020: 4313 403c a68b 81bc 0a41 033b 0653 333d
00000030: b25f 25bc 143b ea3c 79b2 233c a6bc 633c
00000040: 2e63 eebc 85d5 7d3d 13d9 813d 97fb 79bb
00000050: c9a1 163d 6e0e 653d bf7f 2dbc 9bb0 a33a
00000060: 561b 463d 0b93 5cbd 3960 6bbc 555f e83c
00000070: 6a81 b7bc 2a99 77bd b22c 70bc f549 83bd
00000080: d209 15bd 9b7e 0cbd b39d 1c3c 9072 9e3c
00000090: 191e 91bd ef44 63bd f672 6abc b476 1bbd
000000a0: ec7a 0a3d 78e8 ce3c be70 4fbc 9212 39bd
000000b0: 156a 5fbd edce 723d 72b5 fabc aee2 3e3d
000000c0: f4d0 023d a09f bfbc 0ec4 a8bc 51fd 023d
000000d0: fe5b d7bb 7cad e7bc d616 efbb e6d1 d0bc
000000e0: 84a1 3cbc 0fdc d93b bd9c 223d d415 023d
000000f0: 48d4 0bbd 42c1 e43b d537 723b 8f67 43bb
00000100: 43d9 ab3b e86f 343d 5aac 763c b325 8dbd
00000110: efbe f3bb b4cb 29bd 228b ff3b a8aa 753d
00000120: f558 cfbc ef79 c9bc cad7 463c bdd4 71bc
00000130: 4306 0fbc 5da0 2b3d 721b febc 23d0 863c
00000140: 8651 cebc ab0e c43c b5be 84bb 29f1 00bd
00000150: 163e e3bc 1644 3a3c 8cac c2bc d05e 1c3d
00000160: f785 65bc e59f 6ebc 1c30 e4bb fe9f 9a3b
00000170: dc3d 7cbd 0406 25bd 24c6 303c 299d dcbc
00000180: 8c6c 03bd 8d3b 25bd 2d68 c13c 01d6 b93c
00000190: 1f26 06bd 27e0 263c 55bd 48bd a555 8b3d
000001a0: 4847 3ebd 393c a1bc b938 ad3c b7ac 063d
000001b0: fe73 173d 6e72 b3bb 5d70 b2bc 7dd3 e63c
000001c0: 67b6 e4bb 0a3a 2ebd 747b afbc 43c0 d1bc
000001d0: e777 123c b7b7 8ebb 8985 ae3c 875b 253c
000001e0: 16f0 e83c e5ae 003d 78cf 0fbc 7512 4f3d
000001f0: 8d60 4f3b 1718 06bd 3fb5 653c 9b19 d3bc
00000200: c4d8 31bc 9844 343d ecc4 40bd f543 be3c
00000210: 01f3 593c 1d91 4a3d 3532 d33c 27f9 203c
00000220: e31c 043c a914 473c b6e2 03bd 0061 47bd
00000230: bd92 83bd 1b37 683c ff32 2bbd b435 91bc
00000240: 686c 893b 66e0 3d3d 8ebc 823d 44d1 3d3d
00000250: 4c1c 693c 40fd 62bd 39bb 4cbd 1309 63bd
00000260: b5b5 36bd 66ff 0fbc 6cf4 6bbd 0467 44bd
00000270: 7a17 dabb 3b2e 1f3d d846 14bd 2a8b 4bbd
00000280: 950e c1bc a45c 61bd 6308 febc 38bf 303c
00000290: 633b fabc e9fb 37bd 2b22 d5bb be06 55bc
000002a0: cd73 aabc afcf 783c a366 4dbd 37bf 863a
000002b0: 43ee 4dbc 1a23 97bc b6da 81ba b17d 8cbd
000002c0: c381 bbbc 2f03 623d 16f3 21bd 756f a93c
000002d0: 7e0a febc 7fe7 f73b 8051 0f3c 9484 2fbc
000002e0: ee55 003d aa04 4abd a5e1 16bc d912 1cbc
000002f0: 0e2d 68ba 2e7c 24bd 14d3 14bc 00d4 663c
00000300: 8820 2dbd bf5c 68bd 1955 fbbb f5fc 05bd
00000310: 88d4 343c dd9f 8aba ded8 533d b39b 4bbc
00000320: ca08 c43b cec7 2a3c c8ac 103d 98c0 2bbd
00000330: 101e 80bd c66f e5bc dd53 743b 4402 073d
00000340: 7e71 353d 3c19 133c 130c acbc a615 003c
00000350: 931e dcbb 7c18 b0bc 45fa 5c3a 8dc3 0c3c
00000360: 3c5c 983d 9b6e 3b3c 1951 b9bc 6747 2f3d
00000370: 42f8 bf3c 42bd d9bc 3c2b 4cbc c11e 383c
00000380: 0bec 8ebc 9b91 933d 4f76 753d 30b0 2c3d
00000390: 5641 9cbc 6839 133d b9ca 503d 2b3b 4b3d
000003a0: 0707 bebc 0328 793d fa50 15bd 40a3 aebc
000003b0: ab55 183d 78bb 0fbd faa4 0dbc 4756 f03c
000003c0: e923 913d 2886 48bc d24c 3b3d 41a6 17bd
000003d0: 012b 453d 3212 e93a 1811 b139 80c7 2b3d
000003e0: 5563 483d a646 1bbd 9a9d d9bc 69c9 1e3d
000003f0: 088d 82bb b09e 793b 3d2a 7cbd 667f 7d3c
-0.034596972 0.00053682184 -0.014656532 0.0012024768 0.008901103 0.028899925 0.033543766 0.028679151
0.011723342 -0.01581366 0.002002778 0.04378035 -0.010093616 0.028592624 0.009991282 0.013899958
-0.029100027 0.061971206 0.06340232 -0.0038144344 0.036775384 0.055921964 -0.010589539 0.0012488546
0.048365913 -0.05385117 -0.014366203 0.02836577 -0.022400577 -0.060448803 -0.014659094 -0.064105906
-0.03638632 -0.034300428 0.009559083 0.019341737 -0.07085819 -0.055485662 -0.014309635 -0.037955
0.033808634 0.025257334 -0.012661157 -0.045183726 -0.054544527 0.05927937 -0.030604098 0.046602897
0.031937554 -0.023391545 -0.020601299 0.031979863 -0.0065722456 -0.028280966 -0.0072964234 -0.025490712
-0.011513118 0.0066485475 0.03970026 0.0317591 -0.034137994 0.006981046 0.0036959548 -0.0029816364
0.0052444055 0.044052035 0.01505574 -0.06891956 -0.0074385325 -0.041454032 0.0077985683 0.059977204
-0.025310973 -0.024594275 0.012136409 -0.014760193 -0.00872952 0.04190098 -0.031018946 0.01645667
-0.025185358 0.023932775 -0.0040510544 -0.03147999 -0.027739566 0.011368772 -0.023763917 0.038176358
-0.0140089905 -0.014564489 -0.006963743 0.0047187796 -0.06158243 -0.04028894 0.010789428 -0.026930409
-0.03208594 -0.040339995 0.023609245 0.022685053 -0.0327512 0.010185278 -0.049008686 0.06803445
-0.046454698 -0.019682037 0.021145212 0.032879557 0.036975853 -0.0054762876 -0.021782095 0.028177017
-0.006979752 -0.04253582 -0.021421172 -0.025604373 0.00893972 -0.0043553966 0.021303909 0.010092623
0.028434794 0.031416792 -0.008777492 0.05055471 0.0031643242 -0.032737818 0.014020263 -0.025769046
-0.010854904 0.04401073 -0.0470628 0.023225764 0.013302566 0.049454797 0.025780777 0.009825028
0.008063528 0.012150922 -0.03219863 -0.04867649 -0.064244725 0.014173294 -0.04179668 -0.017725803
0.0041938312 0.04635658 0.0638362 0.04634215 0.014227938 -0.0554173 -0.049983237 -0.055428576
-0.044606883 -0.008788919 -0.057606146 -0.047949806 -0.0066556307 0.03886245 -0.036200374 -0.049693264
-0.023566524 -0.05501999 -0.031009858 0.010787778 -0.030545896 -0.044917975 -0.0065043173 -0.013002096
-0.020807171 0.015186234 -0.05014671 0.0010280375 -0.012569013 -0.018449355 -0.00099071 -0.06859911
-0.022889024 0.055178817 -0.039538465 0.02068303 -0.031010862 0.0075654383 0.008747458 -0.010712761
0.03133195 -0.049320854 -0.009209071 -0.009525978 -0.00088568113 -0.04015749 -0.009083528 0.014088631
-0.042267352 -0.056729075 -0.0076700565 -0.03271194 0.0110369995 -0.0010576207 0.051720493 -0.012427258
0.005982493 0.010423614 0.035321027 -0.04193172 -0.06255734 -0.0280074 0.0037281432 0.032961145
0.044297688 0.008978184 -0.021001851 0.007817661 -0.006717512 -0.02149605 0.0008429627 0.008591545
0.07439467 0.011439945 -0.022621678 0.042792704 0.023433808 -0.026579503 -0.01246148 0.011237801
-0.017446538 0.072055064 0.05992728 0.042160213 -0.019074123 0.03594342 0.05097458 0.049616974
-0.02319671 0.060829174 -0.03645418 -0.021318078 0.037191074 -0.035090894 -0.0086452905 0.029338015
0.070869274 -0.012239017 0.04572756 -0.037023786 0.048136715 0.0017781912 0.00033772807 0.041938305
0.048922855 -0.037909172 -0.026564408 0.0387663 -0.0039840974 0.003808897 -0.06156372 0.015472269

fc1.bias f4 [120]
00000000: 1895 cc3d f4f4 8f3d 876c 48bd e1fc de3c
00000010: 7dd9 103d 195d a83b f264 8bbc 350d cabd
00000020: 5e5d 153e 3dd9 e83b 398a 193e 2853 393d
00000030: 87ff 053e d2ad 073e f052 de3b dfa0 dd3c
00000040: 905a 37bc fdfc 313e 7c39 06bd 415e 63bd
00000050: 1b82 2c3d 3433 143e 85ab ad3d 811f ff3b
00000060: b0cd 8a3c b9da 233e ccea c3bd 3e56 ff3c
00000070: 4e62 3d3c 7ce4 b43d 65bb 463c ae69 99bd
00000080: ad65 233d 5a3b d43d c36f e93d cd77 f43d
00000090: 48ef 2abd 265d 7dbd 1f63 c63b 9f90 dbbb
000000a0: 29fb fa3d 59de c43d 44a3 9dbc 82f6 25bc
000000b0: c860 f63d fe9d e03d 4f5b b3bd c4f8 88bd
000000c0: 98bd cb3c 786b 22bd 8735 37ba 5952 8f3d
000000d0: c257 783a 3901 22bd 792d 8fbb 8901 89bc
000000e0: 5c90 10bd 3dfa df3d dc1a 5dbb 1fe7 8b3b
000000f0: c1f9 753d d70c eb3c 29a0 373c fa8f edb8
00000100: fe55 bebc 93d1 4abd edaa 46bb 2a75 21bc
00000110: a560 afbc e8a7 ca3d d464 873d 47bb ac3c
00000120: 5552 a13d 67d9 dc3d 1079 8f3c 8060 b13d
00000130: e59f 463c b661 b63c a6ee 4e3d 0692 cfbc
00000140: 2ba8 09bd 75c7 fc3c 4c29 583e 59c6 73bd
00000150: 9798 a53d 5712 923c 0f59 43bd b5ef 10bd
00000160: 67ac cf3c dcda 253e 19da e83c bd0f 7f3b
00000170: e3ae bfbd d794 103e 6e11 99bc 2693 3ebc
00000180: 7e74 ce3c 2924 aa3a dfdf 273e aea0 443e
00000190: 4abd 25bd d6f0 18bd 9aab 423e 165d 84be
000001a0: 86cf 9e3c dd01 283e d5bb 60bc 1483 97bc
000001b0: 6581 f3bd 6087 773d 48ee d7bd 39c9 0c3e
000001c0: c098 833c 65ff bbbc a503 98bb 7a2e 033d
000001d0: a830 e6bc d0aa 99bd 7691 38bc 84db 743a
0.09989375 0.07029143 -0.048931625 0.027220191 0.035363663 0.005138051 -0.017015908 -0.098658
0.14586398 0.007105975 0.14994134 0.04524532 0.13085757 0.13249901 0.0067847893 0.027054248
-0.011191025 0.17381664 -0.032769665 -0.05550981 0.042116266 0.14472657 0.084799804 0.007785738
0.016943783 0.16001405 -0.09566268 0.031169053 0.011559082 0.088326424 0.012129639 -0.0749086
0.039891887 0.10362883 0.1139827 0.11936913 -0.041732103 -0.06185641 0.0060542966 -0.00670059
0.12254936 0.09612722 -0.01924289 -0.010129573 0.12030178 0.109676346 -0.0875765 -0.06688073
0.024870679 -0.03965327 -0.0006988872 0.069981284 0.0009473526 -0.039551947 -0.0043694344 -0.016724365
-0.03529392 0.10936401 -0.0033737933 0.004269495 0.060052637 0.028692646 0.011207619 -0.000113278584
-0.023234364 -0.04951627 -0.0030314282 -0.009854594 -0.021408388 0.09895307 0.06611028 0.021085395
0.07877032 0.10783654 0.017513782 0.08660984 0.012123083 0.02226339 0.05052056 -0.025338184
-0.033607643 0.030856827 0.21109504 -0.05951533 0.08085745 0.01783101 -0.047692355 -0.035384852
0.025350763 0.1619677 0.02842431 0.0038919293 -0.09359529 0.14119278 -0.018685069 -0.011631763
0.025202032 0.0012980747 0.16393994 0.1920192 -0.040463723 -0.037339054 0.19010773 -0.2585227
0.019386064 0.16406961 -0.013716658 -0.01849512 -0.118899144 0.060431838 -0.105434954 0.13748635
0.016064048 -0.02294893 -0.0046391063 0.032026745 -0.028099373 -0.07503283 -0.011265149 0.00093405717

fc2.weight f4 [84, 120]
00000000: 8016 913d 0cee 8ebd 5f8c 8f3b c08d 84bd
00000010: 8f38 15bd 8cca 843d adc7 91bd d92c 99bb
00000020: 6096 903d ade6 22bd 71b4 3d3d f668 d7bd
00000030: eebe 2ebd f290 93bd 5844 e03b fcd8 be3c
00000040: 5009 283d 2aaa b0bc f1b3 6abd f51f 34bc
00000050: eb07 29bc db61 f03d 886a 59bd 962c 70bd
00000060: ac0a a9bb 953b 393d d8f9 c7bc 5201 3e3d
00000070: 1112 42bd 8af7 b7bc 0648 e33c 36d1 7ebd
00000080: 3a82 603d a716 88bd 5fb7 633d 4535 4abd
00000090: 5394 d4bc 2dc6 adbd 8a7a afbd 98cd a8bc
000000a0: 2bb6 ea3d c95d a53d 7832 213d ac21 7e3d
000000b0: 6d29 a0bd bcef 313d 1e01 343d 881a 473d
000000c0: 6d88 8cbc 2b80 69bd fab4 433d d32a 64bd
000000d0: 7b19 9e3d 367d 2dbd 80de 983d 12cd 96bd
000000e0: 3b09 adbd 2a74 6c3d 97ba b5bc 5c86 2cbd
000000f0: bcc1 f1bc 8ddd a0bd 3ed3 70bd ef81 933d
00000100: ff9b 7ebd 9284 2bbd 53de 02bc 5425 973b
00000110: a820 b83d ad8c cfbc 8621 083c ab1a aabb
00000120: 8a35 6c3d cd4e b93d cac0 9fbd 4ad2 9cbd
00000130: 944d e4ba 8bbc 1e3d 1a75 13bd 9840 34bd
00000140: c9e8 1e3b c327 873d 9521 bcbc d960 063d
00000150: ea39 3abd ae1d 343d e39e 223d eb71 b0bd
00000160: 4976 b63c 67d8 6fbd 31fb 1abd a792 683d
00000170: 1d7e cf3d 9c09 5dbc e13c 3fbd e481 113d
00000180: 2158 a33d 87a7 3dbd 5ed8 863b 8607 963c
00000190: bf2e 9c3c c3af 59bc 2e99 04bc 087a 87bd
000001a0: 7b59 4bbd 92d1 063d a44b 803d a484 b4bc
000001b0: 8d0a be3c 2d04 cbbd b087 723d abb2 57bd
000001c0: 2ab4 5d3d 050a 843d 1ac8 6bbc 1763 8f3d
000001d0: ec5e a7bc a2d5 cabd 1cdb 513d 3a60 183c
000001e0: 55fd cc3d ea42 fe3d e779 71bd a539 0b3d
000001f0: 62cc aebd ae2e a4bd fb18 e43c d199 d83d
00000200: 294f 2b3d c9d7 8c3d 2ece b5bd 58bb 143d
00000210: f284 61bd d2ec 993c a630 2b3e 51fb 153d
00000220: f052 d23d be35 803c 80da a1bd 8f7f bb3c
00000230: f0da 263c d595 cf3d 2a96 20bd 86ed 88bc
00000240: 395c dabd 0c47 853c be05 90bc da75 a1bd
00000250: 680b 09bd e6c8 533d 18f6 2abd 90f8 db3c
00000260: aed6 f5bc d3d6 cbbd 8732 663d 096f 12bd
00000270: 0d38 7cbd 9c2a 2f3d b3c1 cb3c ce1c debb
00000280: 1eb8 723c fe90 c73b 480a 28bd 9bb8 96bd
00000290: c1df 103d 3f3e 4fbd 178c ee3d 31ba 0ebe
000002a0: 8811 ee3c d473 243d 0968 99bd 50c6 88bd
000002b0: 0fc0 1ebe 6ee8 11bd a882 b73a 7fb6 bebc
000002c0: 1959 28bd 86b9 b23d 94f1 e23c fc6a 85bc
000002d0: c530 c43d a383 1dbd 8163 8b3d 22b0 be3d
000002e0: ae3b 203d e184 b7bd 83dd 29bd 0fe6 30bd
000002f0: 0cf2 5f3d fd92 433c 9926 923d 9a24 87bc
00000300: c68c 91bd 5d18 bcbd a2de a4bd 87f4 25bd
00000310: 640c e3ba 6d27 9b3d aaf0 1ebe f254 b33d
00000320: 8bf9 553c cd26 333c d522 2e3e 4f3d e63c
00000330: 40c4 023e 8ebd 0dbe 45e0 c53c 9529 02bd
00000340: a949 d0bd 470a 233c c880 1b3e a816 d0ba
00000350: 8864 b33d 7e79 073e c57d 763d 8223 afbb
00000360: 1d9e b2bd c544 acbd 2145 b8bc 282d 903d
00000370: b244 44bd 7bc9 a83d ce07 8b3d f6e4 86bd
00000380: c618 f1bd 9f15 cabd 4171 ddbc 9473 503d
00000390: 92f5 13be beab 4e3d a635 5b3d 71a3 7dbc
000003a0: 9e87 36bd 01d5 0abe 342d 06be 39e9 0c3c
000003b0: 4dc7 32bb e67d 8b3d 9bf3 b83d 7936 71bc
000003c0: 90b3 69bd 517e 853d 218f 3d3d 7559 e13d
000003d0: f4de 2fbb a4fe acbb afc9 22bc 9002 f6bd
000003e0: c1bb 113e 0878 d43d 346e 863d f767 a6bd
000003f0: dd0b e93d a0a5 aa3c fedf 0fbe b332 c53d
0.0708437 -0.069789976 0.004380747 -0.06472349 -0.03643089 0.06483945 -0.07118163 -0.0046745357
0.07059932 -0.03977077 0.04631466 -0.105180666 -0.042662553 -0.072053805 0.0068440847 0.023296826
0.041024506 -0.021565516 -0.05730051 -0.010993947 -0.010316829 0.117374144 -0.05308011 -0.05863627
-0.005158743 0.045222837 -0.024411127 0.046387978 -0.04738051 -0.022456903 0.027744304 -0.062211238
0.054811694 -0.066449456 0.0555948 -0.049367208 -0.025949633 -0.08485065 -0.08568294 -0.020605847
0.11460527 0.08074529 0.03935477 0.06204383 -0.07820401 0.04344152 0.043946378 0.048609287
-0.017154897 -0.057006996 0.047780015 -0.055704903 0.07719704 -0.04235574 0.074643135 -0.07363333
-0.08449026 0.05772797 -0.0221837 -0.042120323 -0.029511325 -0.078547575 -0.058795206 0.07202517
-0.06216049 -0.041874476 -0.007987577 0.004612604 0.08990604 -0.025335634 0.008308774 -0.0051911674
0.057668246 0.09048233 -0.078004435 -0.07657297 -0.001741814 0.038754027 -0.03600035 -0.044006914
0.0024247637 0.06599381 -0.022965232 0.032807205 -0.045465387 0.043973617 0.039702307 -0.08615478
0.0222732 -0.058555987 -0.03783721 0.056780484 0.10131476 -0.013491061 -0.046688918 0.035524264
0.07975794 -0.046302345 0.0041151484 0.018314134 0.019065259 -0.013286534 -0.0080931615 -0.066150725
-0.049645882 0.032914706 0.06264427 -0.022035904 0.02319839 -0.09912906 0.059211433 -0.052660625
0.054126896 0.064472236 -0.01439097 0.07001322 -0.020431004 -0.099040285 0.05123435 0.009300286
0.10009257 0.124151066 -0.058954146 0.03399052 -0.08535077 -0.08016716 0.027843943 0.10576213
0.04182354 0.06877095 -0.08877216 0.036311477 -0.055058427 0.018789683 0.16717777 0.036616627
0.10269725 0.015650626 -0.07903004 0.022887973 0.010184035 0.10136 -0.039205708 -0.016714823
-0.10662121 0.01626923 -0.017580863 -0.078838065 -0.033458143 0.051705264 -0.0417386 0.026851922
-0.030009594 -0.09953084 0.05620053 -0.035750423 -0.06157689 0.042765245 0.024872636 -0.006778336
0.014814405 0.0060902825 -0.04102543 -0.073594294 0.03536964 -0.050596472 0.11647814 -0.13938214
0.029061094 0.040149525 -0.07490546 -0.0667845 -0.15502952 -0.035622053 0.0014000731 -0.02328038
-0.041100595 0.08726792 0.027703084 -0.016286366 0.095796145 -0.038455617 0.06806088 0.093109384
0.039119415 -0.089608915 -0.041471016 -0.04318815 0.054674193 0.0119369 0.07136268 -0.016496945
-0.071069285 -0.091843344 -0.08050276 -0.040516403 -0.0017322418 0.07575879 -0.15521494 0.087564364
0.013059984 0.010934544 0.17005475 0.028105406 0.12770176 -0.1384184 0.024154792 -0.031777937
-0.101702996 0.009951181 0.15185845 -0.0015875893 0.08759409 0.1322994 0.060178537 -0.005344809
-0.08721564 -0.08411554 -0.0224939 0.07039863 -0.047917075 0.08241554 0.06788598 -0.065866396
-0.11772303 -0.09867405 -0.027031543 0.050891474 -0.14449146 0.050456755 0.05351796 -0.015480862
-0.04456293 -0.13557817 -0.13103181 0.0086005265 -0.0027279437 0.068111226 0.09030839 -0.01472246
-0.05705601 0.065182336 0.046279076 0.11003391 -0.0026835771 -0.005279379 -0.00993578 -0.120122075
0.14231779 0.10374457 0.06563988 -0.081252985 0.11379216 0.02083093 -0.1405029 0.09628811

fc2.bias f4 [84]
00000000: 129c 083e 79c6 ef3d 0115 043e 4e57 51be
00000010: 6f0c 62bd e631 e13d 11c7 983d a225 cb3c
00000020: 4af3 483d 684a b1bd a77d b53d 15f1 5a3d
00000030: 652a 663d 0149 09be 4e47 f8bc 4ca1 153e
00000040: 200a 8b3e e9ba 7e3e cfaa 433e ba1b a53d
00000050: d1b7 1a3e 29a1 ce3d 43b0 9d3d 68bc 14bc
00000060: 4f94 69bd 9c77 5e3e e609 683d 9a6c 563e
00000070: 9f5e 353e e299 d9bc aa52 55bc f3bc 7a3e
00000080: 1160 873e 7746 663e 7c33 88bc 3017 96bb
00000090: 7cc0 cbbd d5f5 493d 469f cebc e9b4 debd
000000a0: 7120 3f3d f729 e43d 35f5 a53d 911b 003e
000000b0: e709 03bd 742b c5bd b828 2b3e cba1 ea3d
000000c0: 5ba3 92bd cace 2e3e 0c92 01bd d812 36bd
000000d0: e7fc 883d 5628 573d adb9 a6bd b6e8 f43d
000000e0: 3927 363e 2c12 2a3e 3429 f83d ff0d cbbd
000000f0: 8431 b53e 8d10 a3bc 66f1 e93b 7f86 d53d
00000100: e36d ac3d 0618 f7bd 9567 6cbd 2977 b93d
00000110: d8a3 cbbc ee17 89bd ce76 1b3d 1567 bfbd
00000120: 5940 c6bc bd19 1b3e eb88 41be 83a8 373e
00000130: e53e 433e 5585 8ebd a5c4 87bd 028c 0fbd
00000140: 4de3 013f 16ab 243e 88d0 c23c 97b1 28bd
0.13340786 0.117077775 0.12898637 -0.2044346 -0.05518764 0.109958455 0.07459844 0.024798218
0.049060144 -0.0865677 0.08861857 0.05345257 0.056192774 -0.13406755 -0.030307438 0.14612311
0.27156162 0.24875988 0.19108127 0.08061929 0.15109183 0.100893326 0.07699635 -0.009078123
-0.057026204 0.21725315 0.056650065 0.20939866 0.17711876 -0.026562635 -0.013020197 0.24486141
0.2644048 0.22487818 -0.016626112 -0.004580401 -0.09948823 0.04930671 -0.025222432 -0.108743496
0.046661798 0.11140817 0.0810341 0.12510516 -0.031991865 -0.09627429 0.16714752 0.11456641
-0.07160064 0.17071071 -0.03163342 -0.044451565 0.06688862 0.0525287 -0.081408836 0.119584486
0.177884 0.16608495 0.12117234 -0.09914779 0.3538934 -0.019905353 0.0071393726 0.10426044
0.08419397 -0.12065129 -0.05771597 0.09055931 -0.0248584 -0.06694017 0.037955098 -0.09345833
-0.024200605 0.15146537 -0.18899886 0.17935376 0.19066961 -0.06959025 -0.06629304 -0.03504563
0.5073746 0.16080889 0.023781076 -0.041184988

fc3.weight f4 [10, 84]
00000000: b965 afbd 76fc 1f3e 7dc0 d9bd 35b1 f1bc
00000010: b3b5 343d a334 af3d 228e 023d 3237 623e
00000020: 3e40 0abe 2776 e63b b6ea 06be b966 3e3d
00000030: 863d dcbc e334 a63e 77a3 e93d ee3d 193e
00000040: 43a0 c7bd 2019 803e efd6 2bbe 4089 b5bd
00000050: 5f58 163e f365 473c 7e26 2e3d db6a 64bd
00000060: 5334 8abd b10b 68bc 657d e33d 343c 783e
00000070: e1ee 5abe 300e ddbc e722 09bd ebf0 f73d
00000080: e905 d23d adde e23d 1dc9 d53c 914c 9c3d
00000090: 22d3 13bd b5c5 e43d 4799 36bd f71d dfbd
000000a0: c1ca 5d3e b53e af3c 82ff 403d 64b2 94bd
000000b0: 15f3 2f3d 9bf1 a8bd 5148 93bd 49d0 1b3d
000000c0: 84d8 7f3d 65ec e13d f92d 313e 70f0 df3d
000000d0: c505 12bd a563 88bd 9ef5 efbd 086f 48bd
000000e0: 96b2 273e bef2 57bc 74b3 ac3d d0e5 523d
000000f0: 9abc 67be e95d 623e b29f fcbd 4acf a43e
00000100: 22db 0dbe b77a 113e 0251 cebd 9249 e53d
00000110: c702 eb3d 4bc4 d23d cdec 123d 1e2b 9c3d
00000120: 6d61 ec3c 27b0 e53d 8959 66bb 4aba 37be
00000130: 7d3c 15be 2421 95bd 568c 70bd ed6f ab3b
00000140: 3d0d a8be eadf 16be 948c 623e e7b9 433d
00000150: fe7d 98bc 4f48 39be 0ea9 1cbd 07bc b53d
00000160: 3625 383e 0b0c 133d fb42 e5bd 64af 1fbe
00000170: 0475 9bbe ebc5 443d a51a 3bbe da65 9f3d
00000180: 6e61 44bd 7005 a43e 8ec5 ab3d 67d0 57be
00000190: 87d5 36bd 09c1 2fbe 6b40 76be 9e4a 4dbe
000001a0: 0d00 88be 52d1 88bd 5c31 773c 2edf 8c3c
000001b0: d3eb a6bd 2a66 84bd 221b 0d3e 63cc 18be
000001c0: 0e08 2ebe 6045 9fbd af57 a53c 7ff4 1d3e
000001d0: 9471 50be 231f 25be 5c61 e2bc 0eef 03be
000001e0: ca4c 913e 6a74 b93e f2e2 693e 0911 033e
000001f0: 414f 103e 561d ccbb d349 84bd 89e8 1bbe
00000200: 2411 05bd 6691 1fbc 6611 5abd 105b 60bd
00000210: bbf6 59bd a528 48be 6e02 66bd e896 54bd
00000220: ba55 7fbd 9701 763e 467d 363d 96d2 1bbd
00000230: 4ae6 bf3d 6a56 c2bd 7a0b 33be 8dcb 5f3c
00000240: aedb 36be dc26 b4bd c01b 303e 7665 e93d
00000250: 3d01 533c 1e5a a5bd b8e8 76bd e322 133e
00000260: 65e6 febd d44c a33d a6e3 7ebe c3fa 8d3d
00000270: 0b71 4cbd 6b98 e73d ce19 c73e e08d a03d
00000280: 9bf2 64be 0297 533b 2716 a7bb 3a10 743c
00000290: 177c f3bd 0f5d 5ebe b813 053e 2331 33be
000002a0: 5598 2dbd 32e2 9c3e df8b e7bd 86fc f6bd
000002b0: 4f1f 06be 29ee 58bd dd3e a6bb d378 f2bd
000002c0: 8f0e 2fbd 3ccd 4ebd 76a2 cbbd 81b5 72bc
000002d0: 0e40 7fbc 6395 583d 0eff 323d efa9 523d
000002e0: 8f6d 09bd 3a69 873e 0393 5f3d a9f1 0b3e
000002f0: 39a5 863e 8b76 1e3e 5192 8e3c fe6b 4fbc
00000300: ee96 d33d 3253 37be 2528 4abd a02b 573c
00000310: fb15 ec3c 64ba adbd fd74 0f3e 6361 24bd
00000320: 8049 783e 38d8 813d 992a cf3c 0e7e 143e
00000330: a7c1 21be 4f2e 22be 8486 e4bd f7ad 72be
00000340: 1a4e 94be f5a8 d93d 03f7 803d b309 8f3d
00000350: 5b2c 82bd d838 a23d 3353 563e 6688 fbbb
00000360: 7fce 353d dec3 ca3d 1693 2bbd b8d6 0c3c
00000370: 55e4 9f3c 2662 5dbd 2ee3 a93c 9445 183e
00000380: 7ae0 8ebd 27d6 f539 64cd d2bd 6753 99bc
00000390: fee6 3f3e b3ec 0f3d 728d 42bd 74c0 b23d
000003a0: bc08 223d 5b74 2a3c 133b 9c3d b960 08be
000003b0: 8719 483e af12 86bd 12c8 7a3c 700c 803c
000003c0: cde3 9b3d ee08 d5bd c482 9b3d 9cd8 1b3e
000003d0: a544 3e3e 4fba 753d f0c5 773d 465b 11be
000003e0: 11cd 84bc c430 313e 0990 463c d70c e1bb
000003f0: 40ed 2e3e 35b7 c53d d5ae 943e 77f1 0ebe
-0.08564324 0.1562365 -0.10632417 -0.029503444 0.044118594 0.085549615 0.03187383 0.22091368
-0.13501069 0.007033128 -0.13175473 0.046484683 -0.026884805 0.32462224 0.114081316 0.1496503
-0.09747364 0.2501917 -0.1678121 -0.08864069 0.14682148 0.012170303 0.042517178 -0.055765968
-0.06748261 -0.014162944 0.111079015 0.24241716 -0.21380188 -0.026984304 -0.03348055 0.12106498
0.102550335 0.11077628 0.026096875 0.076317914 -0.036090024 0.11170522 -0.04457977 -0.10894387
0.21659376 0.021392206 0.04711867 -0.07260588 0.04295643 -0.082492076 -0.07191528 0.038040433
0.062462345 0.11031417 0.17302693 0.10934532 -0.035650034 -0.06659631 -0.1171677 -0.048934013
0.16376719 -0.013180433 0.084326655 0.051488698 -0.2263054 0.22106136 -0.12335147 0.321894
-0.13853124 0.14206968 -0.10074045 0.11195673 0.11475139 0.10291346 0.035870362 0.076254115
0.02885505 0.11215239 -0.0035148582 -0.17942157 -0.14573856 -0.07281712 -0.058727585 0.0052318485
-0.328226 -0.14733854 0.22123939 0.047784712 -0.018614765 -0.1809399 -0.03824716 0.08873754
0.17982945 0.035900157 -0.11194416 -0.1559425 -0.30362713 0.04804031 -0.18271883 0.077830985
-0.04794448 0.32035398 0.0838729 -0.21075593 -0.04463723 -0.17163481 -0.24048011 -0.20047995
-0.2656254 -0.0668055 0.015087452 0.017196264 -0.08150449 -0.06464799 0.13779882 -0.14921717
-0.1699526 -0.07776904 0.020183412 0.15425299 -0.20355827 -0.16125159 -0.027634315 -0.12884161
0.28378898 0.3622163 0.22840479 0.12799467 0.14092733 -0.006229083 -0.06459393 -0.15225424
-0.03248705 -0.0097392555 -0.05323925 -0.054774344 -0.053213816 -0.19546755 -0.05615466 -0.051901728
-0.062337615 0.24024044 0.044553064 -0.038042627 0.09370096 -0.094891384 -0.17484847 0.01365937
-0.17857239 -0.08796474 0.17198086 0.11396305 0.012878713 -0.08073829 -0.06028053 0.14368777
-0.12446288 0.07973638 -0.24891528 0.069325946 -0.049912494 0.11308368 0.38886875 0.078395605
-0.22358172 0.0032286053 -0.0050990763 0.014896447 -0.11888903 -0.21715187 0.12995803 -0.17499213
-0.042381603 0.30641323 -0.11305975 -0.12059884 -0.13097881 -0.052961502 -0.005073412 -0.11839452
-0.042738494 -0.050488696 -0.09943096 -0.014813782 -0.015579237 0.05287684 0.04370027 0.051431593
-0.03355175 0.2644747 0.05458356 0.13666405 0.2629793 0.15474908 0.017403753 -0.012660025
0.10331522 -0.1790283 -0.04935469 0.01313296 0.028819075 -0.08482817 0.14009471 -0.040131938
0.24246788 0.063400686 0.025288867 0.14501211 -0.15796529 -0.15837978 -0.11158469 -0.23699175
-0.28965837 0.10627929 0.06297114 0.06984272 -0.063561164 0.07920998 0.20930175 -0.007676172
0.044386383 0.0990064 -0.04188832 0.008596115 0.019518057 -0.05404868 0.02073821 0.14870292
-0.06976409 0.00046889597 -0.102930814 -0.018716527 0.1874046 0.035137843 -0.047498174 0.08728114
0.03955911 0.010403718 0.07628455 -0.13318147 0.19540988 -0.06546532 0.01530649 0.01563093
0.07611809 -0.10402094 0.07593301 0.15219349 0.18580873 0.05999213 0.060491502 -0.14194974
-0.016211065 0.17303759 0.012119302 -0.0068679857 0.17082691 0.096540846 0.29039636 -0.13959299

fc3.bias f4 [10]
00000000: 4b1a 30bd 7433 06bf 9a46 b33c b974 2c3e
00000010: ea7a 063f b768 f9bd 3b07 923d 946a a0be
00000020: 5b7b b83e 6a4a a2be
-0.042993825 -0.5242226 0.021884251 0.16841401 0.525313 -0.12178176 0.07130285 -0.31331313
0.36031613 -0.31697398
